models/tmp.pth (torch_old, 160149 bytes, 4 tensors)

lin1.weight f4 [50, 784]
0.0074926615 -0.004454769 -0.028868392 -0.0012688227 0.012186017 0.026156228 0.007473219 -0.0007125661
-0.027890569 0.0043908916 -0.0062803663 0.022779364 0.032985415 0.034221854 -0.027948888 -0.007828645
0.033595685 0.01502927 0.007195227 -0.024919864 0.01865232 -0.0052203704 -0.016064053 -0.034780916
0.02278231 -0.009514736 0.033395957 -0.009267446 -0.025440285 -0.024980262 0.019508671 -0.028123546
0.03251681 -0.022599772 0.015352547 -0.017740315 -0.018854734 -0.01741901 -0.021191169 0.031022254
0.032745074 -0.008366231 -0.021869209 0.029582154 -0.030868009 0.026240904 -0.033408877 -0.03399948
0.035474572 0.032907125 -0.017266117 -0.009876983 0.017792378 -0.02730164 -0.018749174 0.026301883
-0.007987469 0.00456078 -0.01077687 -0.008906739 0.0005243942 -0.016049335 0.020225815 0.009175733
-0.030425461 0.030888926 0.026752796 -0.0035736822 0.033984344 0.005635768 -0.024151377 -0.018596105
-0.020920888 0.013615895 0.017033145 0.0063457526 0.030261975 0.017805211 -0.009772038 0.027923655
0.000607986 -0.0344206 -0.009519706 0.0006651804 0.013540022 0.0014058016 0.018722896 0.01151672
0.025053095 0.020907339 0.034473453 -0.019544965 0.014004186 0.026385617 0.027981278 0.014952011
0.023393486 -0.0065282546 -0.019586986 0.016558055 0.008101303 0.035436157 -0.032267433 0.011400275
-0.01879228 0.028366547 -0.029331408 0.02265434 -0.0020776354 -0.011400633 -0.026819162 -0.0053455755
-0.027687274 -0.018230792 -0.022083348 0.0151728615 -0.02464478 -0.005603876 0.030732516 0.017303407
-0.012086831 -0.027357876 -0.0045601726 -0.012136664 0.024889294 0.035590712 -0.002985984 0.027828928
0.02305641 0.011944123 -0.029327879 -0.0038797446 -0.031492274 0.013385829 -0.020736584 -0.014112972
-0.0014012158 0.0036752708 0.024164338 0.027076717 0.00899601 0.03451245 -0.0343753 0.0049465336
0.035050634 -0.013756549 -0.008398563 -0.028732361 -0.019995809 -0.007491486 -0.021538446 -0.016333576
-0.022352211 -0.012160715 -0.033615492 0.004209589 0.013185028 -0.00080166385 -0.01667561 -0.0125477705
-0.011423187 0.0017422475 0.020805512 -5.275011e-05 0.00014845654 -0.029245773 0.016161952 0.017700758
0.019339707 0.010160703 0.027251866 -0.015116174 0.010265179 0.022888556 0.009867009 0.01273156
0.030452859 0.017398085 0.03450613 0.03134237 0.0147290975 0.0126678385 -0.015993336 0.0009830631
0.00981351 -0.028509328 -0.0193366 0.018181097 0.03182989 0.007548094 -0.03234631 0.034818236
-0.014608668 -0.008601543 -0.020934412 0.03330047 -0.021631518 0.026382629 0.00936139 0.015637875
-0.033305243 -0.02660487 0.02082932 -0.00010361895 0.02340861 0.020397663 0.026263535 -0.011074595
-0.01078596 -0.016114844 -0.015234344 -0.004724426 0.00519336 -0.0072047543 0.018774502 -0.006257901
-0.0042506233 -0.02695268 0.008428771 -0.025524149 0.011335008 -0.01978491 0.00033075735 -0.016786495
0.0166042 -0.022355026 0.0319289 -0.006614063 -0.029423298 0.011756804 0.032949317 0.030069325
0.033930805 0.0012163222 0.024648767 0.02968144 -0.023676991 0.017985445 -0.031904425 0.025845256
-0.0065169074 0.010870807 0.009352587 -0.027421854 0.01968699 0.02957907 0.03341679 0.014725331
0.011723593 0.00049969554 -0.018203069 0.018214319 0.0048236586 0.032003578 -0.017615063 0.003668867
00000000: 0085 f53b 50f9 91bb 687d ecbc a04e a6ba
00000010: dca7 473c 9645 d63c e8e1 f43b 80cb 3aba
00000020: c37a e4bc 78e1 8f3b 88cb cdbb ca9b ba3c
00000030: b71b 073d 372c 0c3d 11f5 e4bc b843 00bc
00000040: a19b 093d 543d 763c f0c5 eb3b be24 ccbc
00000050: c0cc 983c a40f abbb c398 83bc 6f76 0ebd
00000060: f8a1 ba3c b2e3 1bbc 33ca 083d 7cd6 17bc
00000070: 2568 d0bc 68a3 ccbc a6d0 9f3c 5a63 e6bc
00000080: 5930 053d 2823 b9bc 4089 7b3c 2354 91bc
00000090: 3e75 9abc 50b2 8ebc 1a99 adbc 6222 fe3c
000000a0: b31f 063d 8412 09bc 0e27 b3bc 4656 f23c
000000b0: e8de fcbc 2af7 d63c bfd7 08bd 0a43 0bbd
000000c0: c94d 113d 9fc9 063d ac71 8dbc 12d3 21bc
000000d0: 52c1 913c b0a7 dfbc de97 99bc 0c77 d73c
000000e0: e0dd 02bc 9872 953b 7891 30bc 92ed 11bc
000000f0: 8077 093a e579 83bc 9cb0 a53c d055 163c
00000100: d13e f9bc c60a fd3c ae28 db3c 7034 6abb
00000110: 2b33 0b3d 40ac b83b 1cd9 c5bc dc56 98bc
00000120: 4862 abbc 3415 5f3c 1889 8b3c 08f0 cf3b
00000130: f6e7 f73c 3cdc 913c e61a 20bc 26c0 e43c
00000140: 4061 1f3a 9dfc 0cbd 8af8 1bbc 805f 2e3a
00000150: f8d6 5d3c e042 b83a c260 993c a0b0 3c3c
00000160: 263c cd3c de45 ab3c 0934 0d3d c31c a0bc
00000170: d071 653c a626 d83c fe38 e53c 48f9 743c
00000180: b2a3 bf3c f8ea d5bb e374 a0bc c2a4 873c
00000190: 54bb 043c 8125 113d db2a 04bd 38c8 3a3c
000001a0: 45f2 99bc f660 e83c 6c48 f0bc 9895 b93c
000001b0: f028 08bb b8c9 3abc dcb3 dbbc f029 afbb
000001c0: 6cd0 e2bc be58 95bc 23e8 b4bc 9897 783c
000001d0: dae3 c9bc b8a0 b7bb c2c2 fb3c e0bf 8d3c
000001e0: d807 46bc a01d e0bc 806d 95bb dcd8 46bc
000001f0: a2e4 cb3c 91c7 113d 80b0 43bb 7ef9 e33c
00000200: cce0 bc3c 48b1 433c 0541 f0bc 5043 7ebb
00000210: 0bfe 00bd 3c50 5b3c c5df a9bc 183a 67bc
00000220: 00a9 b7ba d0dc 703b 4af4 c53c fecf dd3c
00000230: 0064 133c ed5c 0d3d 1dcd 0cbd 8816 a23b
00000240: 4191 0f3d 2663 61bc 209a 09bc 2160 ebbc
00000250: 40ce a3bc 247b f5bb 6571 b0bc fecd 85bc
00000260: fc1b b7bc bc3d 47bc 66b0 09bd 98f0 893b
00000270: 0406 583c c026 52ba 4a9b 88bc 2a95 4dbc
00000280: 5228 3bbc 205c e43a 5270 aa3c 0040 5db8
00000290: 00ab 1b39 d594 efbc 1266 843c 2e01 913c
000002a0: 4e6e 9e3c 1479 263c 4e3f df3c d4a9 77bc
000002b0: 482f 283c c880 bb3c 3ca9 213c 0898 503c
000002c0: 4678 f93c 6e86 8e3c 4d56 0d3d db60 003d
000002d0: 5052 713c c48c 4f3c 7504 83bc 20da 803a
000002e0: d8c8 203c 658c e9bc ca67 9ebc 86f0 943c
000002f0: 0f60 023d 0056 f73b 907d 04bd 919d 0e3d
00000300: 3259 6fbc 7ced 0cbc a57e abbc 1366 083d
00000310: 9534 b1bc 6220 d83c 8460 193c 001b 803c
00000320: 146b 08bd 75f2 d9bc 40a2 aa3c 004e d9b8
00000330: 6ac3 bf3c 0019 a73c a026 d73c 3872 35bc
00000340: 98b7 30bc 4703 84bc 7899 79bc 5ccf 9abb
00000350: 102d aa3b dc15 ecbb fccc 993c 140f cdbb
00000360: d048 8bbb decb dcbc d418 0a3c 0518 d1bc
00000370: 78b6 393c f713 a2bc 8069 ad39 d583 89bc
00000380: 8805 883c e321 b7bc e1c7 023d c8ba d8bb
00000390: 2109 f1bc 9c9f 403c ddf5 063d f253 f63c
000003a0: 07fb 0a3d 006d 9f3a 36ec c93c 7e26 f33c
000003b0: 40f6 c1bc 3656 933c 37ae 02bd 6eb9 d33c
000003c0: c88b d5bb 781b 323c 983b 193c cca3 e0bc
000003d0: 9c46 a13c ce4f f23c 0be0 083d 8442 713c
000003e0: 5014 403c 00fe 023a 9a1e 95bc 3236 953c
000003f0: c80f 9e3b 2f16 033d 774d 90bc 6071 703b

lin1.bias f4 [50]
-0.03099003 0.017664842 0.021163806 -0.029272353 0.00049236044 0.0033590794 -0.011045188 -0.0119283665
0.035039846 -0.018132998 -0.010815663 0.030054066 -0.019022785 -0.031514343 -0.023483064 -0.029108662
0.0080478825 -0.013927847 0.0023670085 0.008300394 -0.014917625 -0.031676635 0.01193288 -0.030125007
-0.020845823 -0.021818988 -0.019391814 0.021301802 0.021169338 -0.029850224 0.0035798214 0.0061188005
-0.009595169 0.033272233 -0.02990093 -0.026726043 0.00804466 0.012853555 0.024823766 -0.025319155
-0.015528429 -0.014346451 0.0016812645 -0.031449437 0.029823754 0.00050613284 -0.019596232 0.0061794147
0.026108954 0.026947472
00000000: cede fdbc dcb5 903c b85f ad3c 93cc efbc
00000010: c011 013a 0024 5c3b e0f6 34bc 326f 43bc
00000020: f185 0f3d a78b 94bc 2e34 31bc f233 f63c
00000030: acd5 9bbc 2f15 01bd 8e5f c0bc 4a75 eebc
00000040: 44db 033c a031 64bc d01f 1b3b 60fe 073c
00000050: 0e69 74bc 5cbf 01bd 2082 433c b8c8 f6bc
00000060: dcc4 aabc bcbd b2bc 95db 9ebc 1e81 ae3c
00000070: 526b ad3c 7588 f4bc 709b 6a3b 3880 c83b
00000080: 0e35 1dbc 7748 083d ccf2 f4bc 93f0 dabc
00000090: c0cd 033c b897 523c 365b cb3c 1e6a cfbc
000000a0: f46a 7ebc 600d 6bbc e05d dc3a 20d1 00bd
000000b0: f250 f43c 00ae 043a 4788 a0bc b07c ca3b
000000c0: 72e2 d53c f2c0 dc3c

lin2.weight f4 [10, 50]
-0.062376782 -0.030386478 0.09755413 0.13511984 0.034947917 0.13358884 0.07607362 -0.0632254
-0.12787245 0.087851286 -0.08583966 0.089455724 -0.02825459 0.03883709 0.06749405 0.1359822
-0.10824062 -0.1195034 0.0018619448 0.022618458 -0.088826075 -0.07426103 -0.11991919 0.121101156
0.1069909 -0.12159073 -0.09092089 0.028778508 0.057062566 -0.069918625 0.06352399 -0.056692943
0.07495551 -0.005332768 -0.0023298115 0.1269223 -0.10135879 0.10720278 0.010127008 0.119920835
0.030436218 -0.11007203 -0.010084853 0.06388734 0.12171821 -0.017159283 -0.011235476 0.10457417
0.00028426945 0.12669535 -0.08367506 -0.12027925 0.036042288 -0.067443036 -0.13279657 -0.008973002
0.03203793 -0.022707932 0.035709694 -0.091094285 -0.13135251 0.020295769 -0.004708886 -0.085623905
0.034847096 -0.10486927 -0.07470427 0.081735 0.08610655 0.035284847 0.13740553 0.11242147
-0.0030249804 -0.076613955 -0.091486044 -0.02421318 -0.0035120249 -0.042886205 -0.086505756 -0.10195108
0.10116777 0.116626814 -0.10318134 0.06278446 -0.025659405 -0.043741755 -0.0079031885 0.07996346
-0.022649124 -0.12739307 0.1059421 0.13380904 -0.013300702 0.11002891 0.091055065 0.009671807
0.091699734 0.06915411 0.08721031 0.013942748 -0.01216051 0.013990983 0.0070613474 -0.028425135
0.047231212 -0.07339835 -0.10035256 0.101161405 0.022097826 0.054933637 0.07225029 0.09811404
-0.01559633 0.12040587 -0.030849822 -0.061470658 0.022751719 -0.0557442 0.058937177 0.13271557
-0.12745091 -0.023979262 -0.045543246 -0.0109384805 -0.13648269 -0.018282443 -0.09948828 0.09583214
-0.039136805 0.005378455 0.011903241 -0.09658632 0.10305841 0.09684077 0.13573925 -0.10043095
-0.12270457 -0.05952941 -0.025821708 0.04565172 0.039090425 0.101565 0.029950932 0.12755595
-0.012859806 0.11911337 -0.104877114 -0.08205941 0.027521044 0.07371338 0.12094732 -0.11678346
0.026520833 0.107298926 0.06211625 0.09054966 0.12501194 -0.07442246 -0.0089208335 -0.08620404
-0.07076116 0.017119125 -0.0084043 -0.10388875 0.07673791 -0.020822294 -0.029198565 0.009236231
-0.05606647 -0.07721607 0.01680234 -0.12692691 -0.07180168 0.13868676 -0.04083281 -0.05203221
0.11164226 0.050270066 -0.062803395 0.035829082 0.1089621 0.068885416 0.10513742 0.08559741
0.033042 -0.0983369 0.12096228 -0.11416052 -0.01052922 -0.05263167 0.026022494 -0.11594938
0.12080647 0.022561759 -0.076717146 -0.09348079 0.12181957 0.07087204 -0.113539584 0.11926411
0.06932856 -0.12581393 0.0716341 -0.03470525 0.07848632 0.042296723 -0.10935513 -0.11712382
0.014383569 0.112925544 0.07182287 0.01749356 -0.0752937 0.08800353 -0.108997874 0.016781136
0.09138203 -0.022224456 -0.056046717 -0.12951864 -0.031116106 -0.054236874 0.047922045 0.00066155195
0.051049933 0.11310406 -0.09472038 0.022311121 0.11477552 -0.043143436 0.040471688 0.0055374056
0.012898013 -0.051917806 0.105428934 0.11217223 0.075552374 -0.04445859 0.060585573 -0.07491276
0.08854815 -0.011285111 0.11203168 0.0029369444 0.124039605 0.0053203255 -0.006696373 -0.06887604
-0.13993458 0.120217666 -0.044600897 0.061686978 0.06327331 -0.00812 -0.047650754 0.05067058
00000000: cc7e 7fbd 10ed f8bc 76ca c73d db5c 0a3e
00000010: 8c25 0f3d 83cb 083e 7ccc 9b3d 527c 81bd
00000020: fff0 02be 60eb b33d b4cc afbd 9034 b73d
00000030: 2c76 e7bc a413 1f3d 523a 8a3d eb3e 0b3e
00000040: 42ad ddbd 33be f4bd 800c f43a 584a b93c
00000050: 72ea b5bd 2b16 98bd 3198 f5bd e203 f83d
00000060: 0c1e db3d 9004 f9bd bb34 babd e8c0 eb3c
00000070: 70ba 693d 7f31 8fbd de18 823d dc36 68bd
00000080: 4682 993d 80be aebb c0af 18bb ebf7 013e
00000090: 3395 cfbd 228d db3d c0eb 253c 0e99 f53d
000000a0: 6055 f93c 726d e1bd f03a 25bc 5ed7 823d
000000b0: 6647 f93d a091 8cbc 0015 38bc fc2a d63d
000000c0: 000a 9539 6dbc 013e d45d abbd f854 f6bd
000000d0: 14a1 133d 931f 8abd d3fb 07be 8003 13bc
000000e0: 343a 033d fc05 babc 5444 123d a48f babd
000000f0: 4681 06be 5043 a63c 004d 9abb 965b afbd
00000100: d4bb 0e3d b3c5 d6bd 8dfe 98bd ae64 a73d
00000110: a258 b03d d886 103d 09b4 0c3e 3a3d e63d
00000120: c03e 46bb c7e7 9cbd 095d bbbd b85a c6bc
00000130: 002a 66bb 72a9 2fbd ee29 b1bd bacb d0bd
00000140: 0c31 cf3d 0ada ee3d bd50 d3bd 2495 803d
00000150: ac33 d2bc 8e2a 33bd 607c 01bc e2c3 a33d
00000160: a88a b9bc 5473 02be 2cf8 d83d 3d05 093e
00000170: 30eb 59bc d656 e13d 147b ba3d 8076 1e3c
00000180: 12cd bb3d aca0 8d3d 529b b23d 2070 643c
00000190: e03c 47bc 703a 653c e062 e73b d4db e8bc
000001a0: 8475 413d e051 96bd a585 cdbd b62d cf3d
000001b0: 8006 b53c 1802 613d f6f7 933d 04f0 c83d
000001c0: c087 7fbc 5a97 f63d c4b8 fcbc a8c8 7bbd
000001d0: d061 ba3c 0854 64bd 1c68 713d 97e6 073e
000001e0: 7e82 02be 2870 c4bc 8e8b 3abd 5037 33bc
000001f0: 1ec2 0bbe 10c5 95bc 83c0 cbbd a443 c43d
00000200: ea4d 20bd c03d b03b d005 433c 0ccf c5bd
00000210: 4a10 d33d 7454 c63d 3bff 0a3e beae cdbd
00000220: 894c fbbd 1cd5 73bd 0c88 d3bc 4cfd 3a3d
00000230: 481d 203d 5001 d03d a85b f53c 079e 023e
00000240: f0b1 52bc b6f1 f33d d0c9 d6bd c40e a8bd
00000250: d073 e13c 0af7 963d 3ab3 f73d 2b2c efbd
00000260: 3842 d93c 8abf db3d 9c6d 7e3d 1a72 b93d
00000270: 2103 003e cd6a 98bd b028 12bc be8b b0bd
00000280: 3aeb 90bd 683d 8c3c 30b2 09bc a0c3 d4bd
00000290: c428 9d3d 8493 aabc d431 efbc 9053 173c
000002a0: f4a5 65bd 7523 9ebd 10a5 893c 21f9 01be
000002b0: c20c 93bd e703 0e3e 4e40 27bd ba1f 55bd
000002c0: b2a4 e43d fce7 4d3d 119f 80bd 84c1 123d
000002d0: 8627 df3d cc13 8d3d 4a52 d73d b24d af3d
000002e0: 0c57 073d db64 c9bd 12bb f73d fecc e9bd
000002f0: c082 2cbc 4e94 57bd 202d d53c de76 edbd
00000300: 6269 f73d 70d3 b83c e11d 9dbd db72 bfbd
00000310: 8a7c f93d 5c25 913d 7187 e8bd be40 f43d
00000320: 22fc 8d3d 5ed5 00be e6b4 923d 1827 0ebd
00000330: 70bd a03d 543f 2d3d 95f5 dfbd 9dde efbd
00000340: 10a9 6b3c 8245 e73d de17 933d a84e 8f3c
00000350: 9533 9abd 323b b43d 473a dfbd 9878 893c
00000360: 8026 bb3d 1010 b6bc 3e91 65bd 89a0 04be
00000370: 34e7 febc 7c27 5ebd e849 443d 006c 2d3a
00000380: bc19 513d 1aa3 e73d c2fc c1bd d0c5 b63c
00000390: 6e0f eb3d 2cb7 30bd a4c5 253d 2073 b53b
000003a0: 3052 533c c4a7 54bd 20eb d73d 8eba e53d
000003b0: 34bb 9a3d 361a 36bd 9428 783d dc6b 99bd
000003c0: bc58 b53d 30e5 38bc de70 e53d c079 403b
000003d0: 7a08 fe3d 2056 ae3b 406d dbbb e20e 8dbd
000003e0: 034b 0fbe ae34 f63d 6eaf 36bd 7cab 7c3d
000003f0: 7095 813d c009 05bc 702d 43bd f48b 4f3d

lin2.bias f4 [10]
-0.07809228 -0.07623529 -0.054424293 -0.061175987 -0.11003803 0.0011214912 0.05800587 -0.10150588
-0.00088198483 0.073871315
00000000: d8ee 9fbd 3f21 9cbd 02ec 5ebd ac93 7abd
00000010: 9e5b e1bd 00ff 923a 9097 6d3d 51e2 cfbd
00000020: 0035 67ba d849 973d
