models/tmp.pth (torch_old, 528119 bytes, 4 tensors)

u_weight.weight f4 [944, 50]
00000000: b508 82b9 a2d3 ee39 cbaa 3a3a f0e3 253c
00000010: fbdc 85bc 1bc7 cabb a580 fc39 bd24 0cbc
00000020: be4a ff39 c21a da38 a0d4 2cbc eb52 ad3b
00000030: bb06 08bc f23e bcba 08d3 9a3c 435a 93bb
00000040: 8d49 2b3b e7fe 85bb 69a9 3d3c 98f8 0b3c
00000050: db9f 88ba 6ba0 4bbc d09a f3bb b9f2 dfbb
00000060: 6dfa 26bb 2f26 163c cc13 033b 985d 1b3c
00000070: 7c8e 50ba 8453 e63b 0515 1dbc 11c3 9dba
00000080: 79f6 59bb 4670 aebb cdf9 85b9 3b7a 88bc
00000090: f49e 893b e765 42bc 67ee 613c ca6c 2abc
000000a0: 2b29 303b 1327 de3a a612 4cbc 3416 7eba
000000b0: 7076 843b 4d6f 8f3a 7d87 a13c 5492 443c
000000c0: 62fb be38 6b50 22bb 6937 843c a504 ea3b
000000d0: 91cb 08bb fbe1 dd3a 19de 1d3c 24af 39bc
000000e0: 98ae 3abc e1a8 cd3b 9941 5a3b 660c 1fbc
000000f0: 1f2b 083b 1eb7 e8bb e78a 30bc db52 603c
00000100: 3303 80bb 3019 04bc e175 71ba 9952 cb3a
00000110: 0f1b 863a a718 87b9 4304 96bc 37ef f9bb
00000120: 8f68 6b3b af7d 59bc de24 4d3b b72d d73b
00000130: 750c 7abb 6eae a3bb b1b5 853c ff46 133c
00000140: 22e1 d53b 1eea bcbb ec0f 873b e1a0 debb
00000150: eb66 1c3c 3db9 06bb 6f0b 823c edfe 053c
00000160: 5b56 e93b 8c04 ff3a f87f ccba e511 b93b
00000170: cd92 15bb 3d45 e4bb bb54 f43b d51e 0ebb
00000180: 201b 153b 7002 cf3b 225c 183b 015d 4d3b
00000190: 90d6 dd3b 40b6 d73b 12b1 593c 66f5 33bc
000001a0: 8697 763c 523e 823b b955 4f3b b8e5 09bb
000001b0: d6a6 9cbb d2bb dd3b 100e 87bc 558d cebb
000001c0: 291c 67bb 954b 983a db35 903b 97c9 3fbb
000001d0: 92cc f33b 2caf e4bb 2169 803c aaa8 36bc
000001e0: 0f8a 043c 84da da3b 5b5e 54bc ecc9 d0bb
000001f0: 7dfc 00bc c6aa 2e3c d22f 5dba de1a d03b
00000200: 22a3 d6bb dec6 2b3c b66b 043a ba9c 8dbc
00000210: 3345 b1ba b0a4 023c 2e0e 99bb 7b69 733c
00000220: a0b5 5dbb 61ef 48bc b7b3 52bc c455 4c3c
00000230: 4d47 a5bb 605f 963b 9d1d cd3a 16a8 2fbc
00000240: 0609 fb3a 4e74 79ba 295a a6bb 47ce 833c
00000250: 49a3 32bc 9212 78ba 343e 953b c932 9eba
00000260: 1922 23bc 47c1 203a 61e4 bbba 8fa5 743c
00000270: aa61 d5bb 8b0d 07bb cc05 64bc 1620 08bc
00000280: 2bb5 1bbb e037 db3b 1768 cb3b 29ec 363c
00000290: 3562 4b3c 55d3 34bc 7b1c 09bc 6e54 503b
000002a0: 14b5 75bb 7232 f3ba c4b1 013b 70dd 52bc
000002b0: 925c 8a3b 6db3 c6b8 04ab 2cbc 6b02 503c
000002c0: a00b 4b3c c71a 9dbb 0649 dfbb 92d2 523c
000002d0: f3f8 e43b 0f2f 423c 012d a43a ae23 0cbb
000002e0: 85b6 d13a 0684 54bc 7ce4 703c ccda fd3b
000002f0: 30a1 9439 7741 813b 752a 7e3c 9c12 f1bb
00000300: e227 853b 61ce 57bc 8066 8f3c 8917 89bb
00000310: 18a9 183c 9498 8fbc e095 0bbb 4f43 383c
00000320: 0688 1d3c 697b 4ab8 c3c5 fd3a eeef 95bb
00000330: 4237 883c 40ac 283b 4616 0ebc 0920 3fbc
00000340: 6c08 7f3c 9ca5 57bc 2604 bcbb d748 5a3b
00000350: c084 593b f2ce cabb 347b 0a3c 06c4 c53a
00000360: db61 88bc 8986 703b fc12 513b e27e 30bc
00000370: 54a6 c93b 6435 b13b a19e df3b 42e5 d6bb
00000380: 99ab 4b3c adbf ba3a a46b df39 c038 00bc
00000390: d670 803c 6ff6 6bbc 10f1 783c 33ad 81ba
000003a0: 07e9 d63b ded3 2dbc b5b0 74bc 97d3 a6bb
000003b0: 5a13 98ba 278a 8dbc b4bf abbb 0632 20bb
000003c0: 0d4f b7ba 383e d3ba c277 86ba 597f edbb
000003d0: 4a1f e5bb ef5e 31bc 4921 d43b 7402 883c
000003e0: 3350 e7bb c6b9 52bb d757 e9bb cc88 643c
000003f0: c869 0b3c eb0d d83a 5261 39bb 176e 79bc
-0.0002480202 0.00045552576 0.0007120787 0.010125145 -0.016340723 -0.006188286 0.00048161033 -0.008553681
0.00048693077 0.00010400034 -0.010548741 0.0052894256 -0.008302386 -0.0014362021 0.018899456 -0.004496844
0.002613637 -0.0040892246 0.011576035 0.008543156 -0.0010423617 -0.012428383 -0.0074342266 -0.0068343547
-0.0025478855 0.009164377 0.0020000814 0.009482764 -0.0007955802 0.007028999 -0.009587531 -0.0012036284
-0.0033258481 -0.0053234426 -0.00025553853 -0.016659847 0.004199857 -0.011865116 0.01378975 -0.010401914
0.0026880007 0.0016948901 -0.012455618 -0.00096926396 0.004042439 0.0010943204 0.019717926 0.011997778
9.10673e-05 -0.002476717 0.016139703 0.007141667 -0.0020873288 0.0016928309 0.009635472 -0.011333261
-0.011394165 0.0062762355 0.003330326 -0.009707546 0.0020777655 -0.0071019074 -0.010775304 0.013691629
-0.0039066314 -0.008062646 -0.0009210986 0.0015512287 0.0010231453 -0.00025767574 -0.018312579 -0.0076273936
0.0035920476 -0.013274594 0.0031302492 0.006566729 -0.0038154398 -0.004995159 0.016321989 0.008989095
0.006527082 -0.0057652136 0.004121771 -0.0067940806 0.009546022 -0.0020557188 0.015874593 0.008178455
0.00712089 0.0019456311 -0.0015602103 0.005647885 -0.0022823096 -0.0069662617 0.0074563897 -0.0021685858
0.0022751763 0.0063174292 0.0023248275 0.0031335952 0.0067699626 0.006583005 0.013286846 -0.0109838005
0.015050774 0.0039747143 0.0031636788 -0.0021041464 -0.0047806306 0.0067667747 -0.016486198 -0.006303469
-0.0035264587 0.0011619205 0.0044009513 -0.0029264444 0.007440158 -0.00697889 0.01567513 -0.011148611
0.008089556 0.006678881 -0.012961949 -0.006371727 -0.007872698 0.010660833 -0.0008437607 0.006350859
-0.0065502087 0.010484425 0.00050514506 -0.017286647 -0.0013524651 0.007973835 -0.00467088 0.0148566915
-0.003383018 -0.012264104 -0.01286023 0.01247162 -0.0050439 0.0045890063 0.0015649084 -0.010721227
0.001915247 -0.0009515927 -0.005076666 0.016089572 -0.010903188 -0.00094632164 0.0045545343 -0.0012069579
-0.00995686 0.0006132316 -0.001433503 0.01493205 -0.0065118866 -0.0020607437 -0.013917398 -0.008308431
-0.0023759108 0.0066900104 0.006207477 0.011164703 0.012413551 -0.011036714 -0.008368607 0.0031788605
-0.0037491964 -0.0018554463 0.0019789794 -0.012870178 0.004222461 -9.4747964e-05 -0.01053882 0.012695889
0.012392908 -0.004794452 -0.006814125 0.012867587 0.006987685 0.01185204 0.0012525619 -0.0021383571
0.001599983 -0.01297093 0.014702912 0.00774703 0.00028348854 0.0039445716 0.015513052 -0.0073569547
0.0040635923 -0.013171763 0.01750493 -0.004183714 0.009317659 -0.01752881 -0.002129905 0.011246516
0.00961495 -4.8275488e-05 0.0019361306 -0.004575721 0.016627911 0.0025737435 -0.008672303 -0.011665353
0.015565973 -0.013162043 -0.005737799 0.0033307576 0.0033190697 -0.0061892206 0.0084522255 0.0015088327
-0.016648224 0.0036701283 0.0031902185 -0.010772439 0.006153861 0.005407976 0.00682433 -0.0065580914
0.012431049 0.0014247798 0.00042614073 -0.00782603 0.015678804 -0.014402016 0.0151941925 -0.0009893536
0.0065585407 -0.010609595 -0.014934708 -0.0050911414 -0.0011602447 -0.01727779 -0.0052413587 -0.0024443879
-0.0013985351 -0.0016116565 -0.0010259079 -0.007247847 -0.0069922553 -0.010825857 0.0064736945 0.016602732
-0.007059121 -0.0032154187 -0.007121067 0.013948631 0.008509107 0.001648364 -0.0028286767 -0.015224001

i_weight.weight f4 [1639, 50]
00000000: ce51 9bb7 7c16 243c a50b d3bb 02f8 e9bb
00000010: 6fac c1bb 873c 053c a60e d73b c765 893c
00000020: 72b9 d53b f5a2 38bb 7434 5f3b f237 9139
00000030: 4736 df3b 41b7 513c c427 e73a a0b2 18ba
00000040: ca7b 39bc fe28 f9bb 8500 71bc 41a8 c2bb
00000050: 92da 68bb ee41 8e3a 494a 183c f75e d9bb
00000060: 59bf 593b 87ac 193b 950f 9ebb c31e 9e3b
00000070: 6a9f a2bc ccb7 103c 41c7 2e3c 76c0 a0ba
00000080: 7b74 1d3c 2254 ddbb 5b05 323a c2e5 9abb
00000090: c6c9 e93b 8476 073b de14 bbb9 f8cc b539
000000a0: 04f9 313c f8f0 a2b9 861d bf3b 21a0 753b
000000b0: cd93 163c 854b 8d38 1e05 2bbc ee21 3a3c
000000c0: bc8a 0c3c 558c 59bb 3398 b4bb a29e 8b3b
000000d0: dc02 aa3b 19e0 aaba a938 803c 9045 07bc
000000e0: f23b 323a 8f22 1f3c 6007 2d3c 1cc8 a0b9
000000f0: c7db a73b 21cc 6c3b 863a 1bbc 2265 173c
00000100: 1834 2dbc e5a5 153a 6279 e83b 1c02 7c3c
00000110: d1ac 993a 5c36 d3ba ca76 83bc 90b2 6a3c
00000120: 6f98 09bb 4a60 bbbb e25e 9cbb f48a 483b
00000130: 95a2 c73b 65b8 17bc c050 373b efc5 c5b9
00000140: 72e6 90bb 4181 553b 044d 81bc e119 37bb
00000150: 0908 2fbc 9e9a ba3b c17d 52bc 7559 863b
00000160: 1ce6 23bc 29d8 1bbb 3ef7 4c3c 47c5 e3bb
00000170: 06bd 05bc 5016 2cbc 9fb9 0a3c cd2e 8a3c
00000180: 071f 92bb 1227 95bb b280 02bc d2d5 003c
00000190: 246f 4c3c 1004 0ebc fc0d 743c 6cd4 9e3b
000001a0: 4fa9 ef3b 4980 2a3c 41d2 7dbc 22fe 8ebb
000001b0: 07aa 69ba 9203 94bc c1ab 81bb 27e2 3dbb
000001c0: 375a e73a 60e7 4dbc 0255 3a3c c039 553c
000001d0: d0b7 ef3b e4cb 3b3c d7c1 123b 0af2 2b3b
000001e0: bbe0 e13b d0fa 01bc 779a 9ebc 3959 8e3c
000001f0: 57d2 0d3a 2b7c 11ba f272 6c3c 1eb4 503a
00000200: 3368 4b3b aae5 6d3c d29d 763b f7b1 043c
00000210: 9225 49bc cbc6 6b3b b25e a93b 135c c83b
00000220: 027c efbb 649f 2e3b c951 3a3c 0f31 8a3b
00000230: 21bf fbbb 6f1e 303c d886 603b 7984 c7b8
00000240: 39c6 3b3c cde4 2cbc a235 49bc d80e 84bc
00000250: d8a2 acbb 4edf 16bc 9917 123c 738f f93a
00000260: 997f be3b 3d05 32bb a07c 583c 5e8a cabb
00000270: bd19 c1bb db4a d7bb 2ff1 6dbb 723d 2cbc
00000280: dde1 0fba 4a4b b7bb 9034 b83b e27e 603c
00000290: 7d9a 993c fbbf 07bc 7868 4a3c 2973 95bc
000002a0: ad78 9c3b 8e35 ecba eaf8 503c ab46 1a3c
000002b0: c239 26bc e690 91bb cca0 e73b 8977 353a
000002c0: b972 b2bb b1d4 173c 6932 debb fb43 b03b
000002d0: cedf 7dbc f6a0 a6b9 dda8 08bc a944 1bbb
000002e0: bead 663c e692 313c c3b8 063c 37bf 6b3a
000002f0: ca0e 75bc 6bc9 e4b9 a459 013c 0ab4 cd3b
00000300: 6a32 463c 26bd 9a3b 3e3d a03c 382b a63b
00000310: b390 c53b 4716 283b 3e2d ddbb 0eea 3ebb
00000320: 906d b23b d0f2 88bb ae63 d4bb b396 7c3a
00000330: 8b52 d53a 52ac 43ba fd24 4dbc d86a e93b
00000340: fa42 06bc 4b22 48bc 143a 473c 265e 08ba
00000350: 91d6 863a ec0c 6a3c 79f8 3d3c 52cb 4dba
00000360: 0408 1c3b a592 3e3c 73de 28bb fc01 25bc
00000370: 8ada 46bc 48c1 9f3b d525 c23b 59f6 603b
00000380: 98e8 77bb fad1 85b9 db0a 55bc 3d06 dabb
00000390: 24d2 093c 9ce1 a5bb 020b 6bba 7b99 9ebb
000003a0: 5cec edbb 2520 c7ba 927f b9ba 5b74 bc3b
000003b0: 80d3 02bc fb65 013b 602a 96bc 4a6f 5a3a
000003c0: 4b65 113c d0f3 99bb 3b7e 773c 7884 b6bb
000003d0: 8931 013b 8ef0 83bc 4289 f13a b361 fc3a
000003e0: 4e35 4a3c 850a 33bc 0f57 95ba 24ba b2bb
000003f0: a5bb 49bc 44de da3a 29a7 bab9 62cd bf3b
-1.8515533e-05 0.010015126 -0.006440597 -0.0071401605 -0.0059104483 0.008132107 0.0065630255 0.016772164
0.006522351 -0.0028173302 0.0034058364 0.00027698238 0.0068118903 0.012800039 0.0017635752 -0.0005824957
-0.0113210175 -0.0076037636 -0.0147095965 -0.0059404676 -0.0035530669 0.0010853389 0.009295055 -0.006633635
0.0033225624 0.0023448782 -0.004823635 0.0048254444 -0.019851405 0.008832883 0.010667623 -0.0012264389
0.009610291 -0.006754414 0.0006790959 -0.0047270963 0.007134649 0.0020670006 -0.00035682967 0.00034675724
0.010862593 -0.00031078584 0.005832377 0.0037479477 0.009190512 6.7374705e-05 -0.010438232 0.0113606285
0.008577999 -0.0033195217 -0.0055113076 0.004260854 0.005188329 -0.0013036757 0.015652018 -0.008256331
0.00067990937 0.009712829 0.01056084 -0.0003066667 0.005122635 0.0036132412 -0.009474402 0.009240421
-0.010571502 0.0005708619 0.007094548 0.015381362 0.0011724477 -0.0016114223 -0.016047854 0.014324799
-0.0020995399 -0.0057182657 -0.004772053 0.00306004 0.0060923793 -0.009260272 0.0027971715 -0.0003772224
-0.0044220025 0.0032578262 -0.015783794 -0.002793901 -0.010683068 0.0056947013 -0.012847365 0.0041000196
-0.010003593 -0.0023779965 0.012510119 -0.0069510075 -0.0081627425 -0.010503367 0.008467107 0.01686802
-0.004459265 -0.0045517767 -0.007965254 0.007863479 0.01247767 -0.008667961 0.014895912 0.0048471
0.0073138843 0.010406562 -0.015492023 -0.004363791 -0.00089135807 -0.018068109 -0.0039572422 -0.0028973909
0.0017650787 -0.012567371 0.0113728065 0.013014257 0.0073156133 0.0114621855 0.002239337 0.0026236796
0.006893245 -0.0079333335 -0.019360764 0.017376529 0.0005410066 -0.00055498135 0.014431702 0.000796141
0.003103745 0.014520088 0.003763069 0.008099071 -0.012277024 0.0035976644 0.0051687593 0.0061144917
-0.007308484 0.0026645297 0.011372038 0.004217274 -0.0076826965 0.010749443 0.003426006 -9.5137344e-05
0.011460834 -0.010552597 -0.012280853 -0.01612036 -0.005268436 -0.009208513 0.008916759 0.0019039944
0.0058135507 -0.0027163767 0.013213307 -0.0061810454 -0.005892961 -0.0065702028 -0.0036307087 -0.010512697
-0.00054886733 -0.005593692 0.0056215003 0.013702126 0.018750424 -0.008285518 0.012354009 -0.01824339
0.004775128 -0.0018021332 0.012754658 0.009416263 -0.0101456065 -0.004442322 0.007068729 0.0006922414
-0.005445805 0.009267018 -0.0067809117 0.0053791977 -0.015495254 -0.00031781913 -0.008341041 -0.0023692048
0.014079509 0.010838246 0.008222762 0.0008993032 -0.014957139 -0.00043637617 0.007894907 0.006277566
0.012096981 0.0047222553 0.019560453 0.00507107 0.0060292124 0.0025648044 -0.006749778 -0.0029131207
0.00544519 -0.004179336 -0.0064816093 0.0009635493 0.001627521 -0.00074643374 -0.012521026 0.0071233325
-0.008194679 -0.012215207 0.012159843 -0.00052020175 0.0010287334 0.014285307 0.011594885 -0.00078504265
0.0023808489 0.0116316425 -0.0025767356 -0.010071274 -0.012137065 0.004875336 0.00592492 0.0034326522
-0.0037827846 -0.00025524182 -0.013003076 -0.0066535757 0.008411918 -0.005062295 -0.0008966179 -0.0048400736
-0.0072608422 -0.0015192075 -0.0014152399 0.0057511753 -0.007984996 0.0019744623 -0.018330753 0.00083326234
0.008874248 -0.004698254 0.015105779 -0.0055699907 0.0019713363 -0.016105916 0.0018427747 0.0019255191
0.01234181 -0.010927801 -0.0011393743 -0.0054543186 -0.012312804 0.001669832 -0.0003560123 0.005853341

u_bias.weight f4 [944, 1]
00000000: 1364 97bb 0e85 833b d321 a4bb 3425 813c
00000010: 00ea 8b3c c96c 22bc 1254 3fbc 79b9 fdbb
00000020: 1c3c b6bb 8fa3 0abc 329c 6d3b 8696 82bc
00000030: 95a9 803c 27af d93b 9dbe 49ba 132f 47bc
00000040: 54a1 bbbb 4043 0a3b 02da 543c 8f39 12bb
00000050: 50df 293c b24a 48ba c2b5 523c 8113 a9bb
00000060: 0d51 16bc 7022 73ba 2237 ee3b 57f1 bebb
00000070: 84dd 3a3c f722 b93b 5b92 4e3c 0b08 9d3a
00000080: 2f1f e0bb a63f 2a3c 1996 023c 2491 e1ba
00000090: e9cb 1a3b 36b6 88bc 0ccf e2bb 2333 fd3a
000000a0: e200 d53b e972 0cbc b19a 8e39 cb2c b8bb
000000b0: 1370 da3b 6986 803b 559c dc3a ebe1 1c3a
000000c0: 8629 42bb 0770 44bb 7ec9 cfbb 8e2b 29bb
000000d0: 30cc 10bb 33d3 3abc d257 49bc 8bf0 39bc
000000e0: e7f7 bc3a cbe8 823b dd9f 4b3c aa83 5c3c
000000f0: 7c89 1cbb 053f b13b 9e7d 663c 2b2c 233b
00000100: b8af 213a f97b febb b739 1bbc 4120 c6bb
00000110: 0f5a 353c 6e3d 14bb eda9 33bc 970a 9a3c
00000120: 4090 0c3c d718 5cbc 4fc8 ac3a 6b67 7e3b
00000130: fcc4 00bc 8b19 1bbc 326f a83b efc7 8cbb
00000140: c66f 1dbc 0eac f73b 8f83 473c 5d66 69bb
00000150: ebd4 ffbb 6772 ea3b f311 03bc 804f c1bb
00000160: c84c 85bc 85fc 453b 5cbe 663c 7459 363c
00000170: 9b82 febb d9b4 c03b fb06 2dbc 9df0 6cb8
00000180: 436f 7a3b 0ff8 fbbb 30dc c7ba 184b 943b
00000190: 7967 93bb b70f 0dbb b234 cfba 33ec 1b3c
000001a0: 1b96 9f38 85a0 b93b 5eed 61bc 1b27 fc3b
000001b0: 15f0 f1bb 9c33 3bbb 87ce 4bbc 9077 183c
000001c0: 4040 e93a 2b37 793b 144d ffbb d743 bd38
000001d0: 4b60 88bb 0d7c 1d3c 504a 7c3a f9b5 b23b
000001e0: d027 013b 12ec 863b 706d 013b a267 853b
000001f0: 56a8 afbb 9cfb 04bc c5ff ebba 940a 93bb
00000200: 8bd6 29bb 5cff 573b a2ec 61bc 8e9b 133b
00000210: ae54 5abc af58 3c3a 79dd 433c 6bb4 813c
00000220: 735d 26bc 6f9d 8b3b a492 00bc 5c2c c33b
00000230: 4256 f73b d2f2 d1bb c1cb 0abc 187c b83a
00000240: 1e9c 8b3c 17ef aa3a 06ea 6abc 22e4 acba
00000250: 0fdd 0dbb 84b6 5cbc 7f4f 123c 2407 853c
00000260: b140 0dbc ca52 3b3c c287 bdba 92a2 d5ba
00000270: 596b 8dbc f0db 17bc 92db ccbb 7c31 35bc
00000280: fc39 eabb 9766 3dbc 4419 613c a557 7c3c
00000290: a7fd 7cbb cbb9 3139 543b d93b 7b95 39bc
000002a0: 9991 233c eb49 40ba fcf3 ccbb bc7c b939
000002b0: 544d 54bc ce1e 13bc 3c13 f5b9 0572 b93b
000002c0: e024 ecbb baa1 163c 4474 96bb 4c9e 833b
000002d0: 4072 0bbb 0660 f93b fdce 68bb 804d 0d3c
000002e0: 27ca 503c 0969 e93a db7b bcbb b32c 213a
000002f0: f55e ed3b 5261 053b b7dc 4c3a de97 673b
00000300: 10a5 8bbb 2b9d 6f3b e54d cbbb 0c71 6b3c
00000310: 577b ce3b 20a7 d63b cc3d d9ba f7be f8bb
00000320: dc78 533c 7d41 22bc a9a6 6e3a 707b 6d3a
00000330: fe6d a7bb 661a a1ba 574c 113c 87f0 d63a
00000340: e4f6 8d3b 6b94 983c d279 933c f667 8f3c
00000350: 4fed 1dbc c237 f03a f5a4 e03b ccef 603b
00000360: 95bf 44bc 1ed1 663c d24a 143b fc26 80b9
00000370: c05b 043c df01 943c b96b 473b 6d9e 17bc
00000380: fff1 823a c8d5 85bb 010c bb3b 2688 683c
00000390: 0448 9b3b 351c 93bb 1e79 2f3c b48a 54bb
000003a0: 1dfa 813b 5cf7 cb3a ad9d c6b7 7ee8 063a
000003b0: fc6b a7bb 50cc f43b f23f 8e3c 2439 bd3b
000003c0: 261b 073c 74d7 873c cd25 2e3a ee25 62bc
000003d0: 1c66 983b c62a 7fbb 3b76 3ebb cc13 fabb
000003e0: 8fc7 e2bb 80bc 8e3a be8f 8abc 1e3f c2bb
000003f0: beb3 63bc c586 3f3a 291c a8bb b214 7dbc
-0.004620084 0.004013664 -0.005008915 0.01576481 0.017079353 -0.009913632 -0.011677759 -0.0077430573
-0.005561365 -0.008461847 0.003625643 -0.015940916 0.015705863 0.0066431942 -0.0007695945 -0.012157219
-0.005726019 0.0021097213 0.01299143 -0.002231214 0.010368183 -0.0007640525 0.012860717 -0.0051597957
-0.009174597 -0.0009274846 0.007269756 -0.00582711 0.0114053525 0.00564992 0.012608136 0.0011980546
-0.006839655 0.0103911515 0.007970356 -0.0017209393 0.0023620075 -0.016688447 -0.0069216546 0.0019317608
0.0065003494 -0.008572319 0.00027199605 -0.005620574 0.0066661923 0.003922273 0.0016831259 0.0005984592
-0.00296268 -0.0029974 -0.0063411584 -0.0025813314 -0.0022094361 -0.011402893 -0.012289004 -0.011348854
0.0014417142 0.0039950362 0.012428251 0.0134591255 -0.0023885658 0.005409124 0.014068035 0.0024898152
0.0006167847 -0.0077662435 -0.0094742095 -0.0060463254 0.011068835 -0.0022619623 -0.010965806 0.018803878
0.008579314 -0.013433657 0.0013182255 0.0038818966 -0.007859465 -0.009466539 0.0051402086 -0.004296295
-0.009609168 0.0075583523 0.012177362 -0.0035613992 -0.007807364 0.007154751 -0.007999885 -0.0058993697
-0.016271964 0.0030210328 0.014083471 0.011129726 -0.007767034 0.0058809337 -0.010560746 -5.6490873e-05
0.003821329 -0.007689483 -0.0015248116 0.0045255534 -0.004498419 -0.002152426 -0.0015808551 0.0095167635
7.60967e-05 0.0056648874 -0.013789503 0.0076950914 -0.0073833563 -0.0028564697 -0.012439377 0.00930585
0.0017795637 0.0038027267 -0.007791171 9.0248584e-05 -0.0041618696 0.009612096 0.00096241105 0.0054538217
0.0019707568 0.0041174972 0.0019749068 0.004071192 -0.0053606434 -0.008116629 -0.0018005302 -0.004487345
-0.002591523 0.0032958603 -0.013789328 0.0022523138 -0.013325853 0.0007184846 0.011954659 0.0158331
-0.010154116 0.004260711 -0.007847462 0.005956216 0.0075481245 -0.0064071203 -0.00847143 0.0014075069
0.017042216 0.0013041225 -0.014338022 -0.0013190547 -0.0021646654 -0.0134712495 0.008930086 0.016238756
-0.008621381 0.011433313 -0.0014460015 -0.001629906 -0.017263101 -0.009268746 -0.0062517608 -0.011059161
-0.0071480256 -0.011560104 0.013738934 0.015401755 -0.0038603337 0.00016949249 0.006629387 -0.011327143
0.009983444 -0.00073352334 -0.006254671 0.00035378884 -0.01295789 -0.008979512 -0.00046744372 0.005659344
-0.0072065443 0.009193832 -0.0045914967 0.004016673 -0.0021277815 0.007610324 -0.0035523765 0.0086244345
0.012743509 0.0017807792 -0.0057520694 0.00061483233 0.007243986 0.0020352197 0.00078148715 0.0035338323
-0.0042616203 0.0036562185 -0.006204354 0.014370214 0.0063013243 0.0065506846 -0.0016574203 -0.007591124
0.012907233 -0.009903309 0.0009103814 0.0009059226 -0.0051095476 -0.0012291193 0.0088682985 0.0016398587
0.00433241 0.018625459 0.018002424 0.017505627 -0.009639098 0.0018327164 0.006855602 0.0034322618
-0.012008567 0.014087943 0.0022627604 -0.00024443108 0.0080785155 0.018067298 0.0030429198 -0.00925408
0.0009990333 -0.0040843226 0.005708218 0.014192617 0.0047388095 -0.0044894465 0.010710029 -0.0032431306
0.0039665834 0.001556139 -2.3676863e-05 0.00051463384 -0.0051093083 0.007470645 0.017364476 0.005774634
0.008246219 0.016582228 0.0006643206 -0.013802988 0.0046508443 -0.0038935407 -0.002906217 -0.0076317545
-0.006920762 0.0010889918 -0.016914245 -0.0059279343 -0.013897834 0.0007306154 -0.00513031 -0.015446829

i_bias.weight f4 [1639, 1]
00000000: 07bc 133c a78e 083c 9b87 b1bb 9c8e bf3b
00000010: e935 043c e0be 6cbc a6e0 85bb e674 8d3b
00000020: c602 263c 138d 04b8 3eff 263c 260a 8b3b
00000030: bb0b 033c 9ef2 57bb 0728 fdbb 9df2 f8bb
00000040: f667 ac3b 9476 91bc d5a4 90bb 6ba8 613b
00000050: 5c23 3fbb 1749 173b 4bf8 5bbc 49c1 9cba
00000060: ea91 bc3b 358c 42bc 0b08 5bbc 29b0 aaba
00000070: ebe7 b33b 142a 94bb 635d 83bb 529b 90b9
00000080: 3305 af3b 62aa b8bb 1fb8 93bc 9ec0 76bb
00000090: 1792 6fbc 46a6 5fbc d071 633a fc28 6f3b
000000a0: a26b 333b 7b6e a13b 6f37 9938 620c 19ba
000000b0: 9733 3e3c 9376 9e3c 2e64 593b b0ae 3cbc
000000c0: 8765 ae3b 59d6 b03b 3e1a 353c f613 30bc
000000d0: ebb1 24bb 6fc0 153b 62e1 8cbc 79ab 13b8
000000e0: 01d6 c2bb 7fa5 0c3c b4fa d63b e5c9 fcba
000000f0: 7cc4 443b 8778 7f3c cd19 0cbc 2eee e93a
00000100: dc1c 6dbc 773c e13b 4dd8 8339 ad04 8fbc
00000110: 48a8 843c c05d 7b3c 2fc9 0d3a 522f b63b
00000120: a52f c53b aff3 0bbc 601f 503c 9719 4b3b
00000130: caf7 fb3a c1a7 1dbc 19e6 ce3b 9739 dabb
00000140: 077f e33b e8bc 9a3b 7ea6 9bbb b725 e0bb
00000150: 5e5f 463c 2f7f 2a3c 632c edbb 9b3d d2bb
00000160: 6b25 99bb eecf 32bc 15f7 3c3b 4057 0d3c
00000170: 65cd ccbb 7da9 00bc 1d4d 30b6 baac 21bc
00000180: e0a3 fbbb d94e 2bbc 5cae e43a af94 3e3c
00000190: 9aaf 96bb 8098 2c3c a46f a0bb 1c48 343c
000001a0: c847 03bc 36a9 28ba 1dd1 38bc 206f 273b
000001b0: 14af 9f3a 8d9a 0cbc 9251 f33b 803f fa3a
000001c0: 1c00 1f3c ddf0 413c 3db5 4f3b 12c1 2ebc
000001d0: 406a 4a3c c47c 223c a000 9a3c 8f2c 43bb
000001e0: 1460 033c 73fc cebb 8733 1c3c c251 bb3b
000001f0: f6c3 943b 69d9 c3bb 7273 6dbb c7a3 c4ba
00000200: 5978 80ba 10bc c9b9 1748 c63a 2f36 903b
00000210: 53bb 33bc 8caf 8e3a 303b e53a f46c 26ba
00000220: f388 fa3a 37c4 823b 5f42 82bc 6074 863b
00000230: fbd7 0ebc d9c9 12bc bc01 213c 79c8 03ba
00000240: 47cf 3ebb 8a77 953b 9915 02bb dbe0 443c
00000250: 2ee0 e33b 2121 623b 1e85 98bc cea7 883a
00000260: 06e0 853b c1a6 93bb 19fb 923b 1928 80bb
00000270: 21a7 0c3b fdef 1f3b 8728 b1bb 0064 04bc
00000280: 6050 47bc 3668 b03b e94b 29bb 003b 1dba
00000290: 8788 58bb 23e0 82bb d78b 9eb9 5657 2bbc
000002a0: 197d 2e3c 9293 1ebc 176d 74bb d9aa 313c
000002b0: f913 0b3c 9733 90bc c687 383b 429d 9d3b
000002c0: 1c21 2ebc 0f94 56bc bc02 fb3a 0b90 923b
000002d0: e93b 873b 818c 5dbc d86b 1bbc e2df 403b
000002e0: fd39 52bb 7620 883b 3922 7b3c 33e0 34bc
000002f0: 8143 c33b 9b17 643c f400 7cbb 0681 ebbb
00000300: 7378 933c adb3 9abc 5e87 b33b 4664 2a3b
00000310: 33a6 76bc 7b25 00ba 1826 d6bb 1d23 b93b
00000320: f830 bb3b 907c 033b b6a8 89bc 3e3f 103c
00000330: d0af a73b 12c8 223b 9016 84bb 730b b5bb
00000340: 3656 80ba e77e 4bbb 4c1d 583c 3988 88bb
00000350: bea5 9bbc 3dd8 03bc 303f cb39 db27 07bc
00000360: c7cd 763c 8c96 783c ddae 01bc e012 43bc
00000370: 677f 4abc 52da 1fbc 64a0 c43a d829 adbb
00000380: e26c 14bc 6975 3a3b bd1e c33b 532e 923a
00000390: 47a5 833b 867e 9c3c 1495 e93b 2131 6fbc
000003a0: aea4 393c a40f 543b db74 053c f5b7 cf3b
000003b0: 92e8 813b 01c9 b4ba ad38 a4bb 5e18 d1bb
000003c0: 7c39 e43b f36f 9b3b fb1a 303c c7ba ff3b
000003d0: 14cb a7bb 4f4e 073c 698d cc3b 0566 ab3b
000003e0: 5c29 77bb f7e2 edba 3873 12bc bee6 663b
000003f0: 4ee6 97b8 3cab 00bc b24c d7bb e467 3a3c
0.009016997 0.008334792 -0.0054177768 0.005845858 0.008069494 -0.014449805 -0.004085618 0.004316914
0.010132497 -3.1602638e-05 0.01019269 0.004243153 0.007998402 -0.0032951008 -0.007725719 -0.007597281
0.0052614165 -0.017756738 -0.0044141808 0.003443266 -0.0029165363 0.0023084336 -0.013425897 -0.0011959459
0.005754699 -0.011874248 -0.013368617 -0.001302247 0.0054902933 -0.0045216177 -0.0040089353 -0.00027581543
0.005341196 -0.0056355456 -0.018032132 -0.003765143 -0.014622233 -0.0136504825 0.0008676322 0.0036492934
0.0027377387 0.0049265004 7.305934e-05 -0.0005838332 0.01160898 0.01934365 0.0033171284 -0.011516258
0.0053221616 0.005396646 0.01105362 -0.010746947 -0.0025130461 0.0022850295 -0.017197315 -3.5207227e-05
-0.0059459214 0.008584379 0.006560648 -0.0019286243 0.003002434 0.015592701 -0.008551073 0.0017847472
-0.014472213 0.006873663 0.00025147424 -0.017458284 0.016193524 0.015342176 0.0005408702 0.0055598402
0.0060176426 -0.008541985 0.012702793 0.0030990595 0.0019223627 -0.009622515 0.006314051 -0.0066596973
0.006942633 0.0047222264 -0.004750072 -0.0068404335 0.012107698 0.0104062995 -0.0072379573 -0.0064160354
-0.00467365 -0.010913832 0.0028833796 0.008626759 -0.006250071 -0.007852909 -2.627093e-06 -0.009867841
-0.0076794475 -0.01045581 0.0017446983 0.011632129 -0.00459857 0.010534406 -0.004896121 0.01100352
-0.008012719 -0.0006433906 -0.011280325 0.0025548413 0.0012182915 -0.00858177 0.0074254954 0.0019092411
0.009704616 0.011837211 0.003169372 -0.010666149 0.012354434 0.009917442 0.018799126 -0.0029781198
0.008018512 -0.0063167154 0.009533769 0.0057165334 0.004539962 -0.005976845 -0.003623214 -0.0015002423
-0.0009801491 -0.00038477825 0.0015127686 0.0044009904 -0.010969955 0.0010886057 0.0017488953 -0.0006348633
0.00191143 0.003990676 -0.015900789 0.0041032284 -0.008718486 -0.008959257 0.009827074 -0.0005027126
-0.0029115246 0.0045613693 -0.00198493 0.0120165 0.0069542145 0.003450461 -0.018618163 0.0010425986
0.0040855436 -0.0045059626 0.0044854996 -0.00391103 0.0021461921 0.0024404519 -0.0054064426 -0.0080804825
-0.012165159 0.0053835167 -0.00258326 -0.00059978664 -0.003304036 -0.0039940043 -0.00030240297 -0.010457834
0.010649943 -0.009678738 -0.0037296468 0.010843956 0.008488649 -0.017602725 0.00281571 0.0048100064
-0.010628011 -0.013096823 0.0019150595 0.0044727377 0.004127015 -0.013522268 -0.009486161 0.002943032
-0.003207802 0.0041542603 0.015327984 -0.011039781 0.005958975 0.013921644 -0.0038452717 -0.0071870117
0.01800177 -0.018884504 0.0054787835 0.002599971 -0.015054273 -0.00048883975 -0.006535303 0.005649938
0.0057126246 0.0020063259 -0.01680408 0.008804141 0.005117394 0.002483849 -0.00403101 -0.0055250465
-0.0009791318 -0.0031050981 0.013190579 -0.0041666296 -0.01899993 -0.008047161 0.00038766256 -0.008249248
0.01506371 0.015172612 -0.007915226 -0.011906356 -0.012359477 -0.009756641 0.0015001413 -0.005284529
-0.009059163 0.002845133 0.005954592 0.0011152722 0.0040175053 0.0191033 0.007128367 -0.014599116
0.011330767 0.0032357955 0.008145536 0.006339068 0.003964492 -0.0013792814 -0.005011639 -0.0063810786
0.0069648605 0.00474357 0.01074862 0.007804248 -0.0051206443 0.008258416 0.0062424433 0.0052306675
-0.003771386 -0.0018149306 -0.008938603 0.0035232748 -7.243139e-05 -0.007853325 -0.006570422 0.0113773085
